…
                ],
                "system": "PixelSpace"
            },
            "file_directory": "./uol-docs",
            "filename": "978-3-031-11488-5.pdf",
            "image_path": "/home/msunkur/dev/projects/uol/Module5/midterm/CM3020_Artificial_Intelligence/parta/docs/tmp/tmp_ingest/output/figure-197-96.jpg",
            "languages": [
                "eng",
                "tur"
            ],
            "last_modified": "2024-12-28T23:19:26",
            "page_number": 197
        },
        "text": "Model: \"sequential_12\" Layer (type) Output Shape Param # convid_24 (Conv1D) (None, 73, 100) 1000 dropout_48 (Dropout) (None, 73, 100) 0 max poolingid 24 (MaxPooling (None, 24, 100) (2) convid_25 (Conv1D) (None, 22, 32) 9632 max_poolingid_25 (MaxPooling (None, 7, 32) (a dropout 49 (Dropout) (None, 7, 32) o flatten 12 (Flatten) (None, 224) o dense 48 (Dense) (None, 128) 28800 dropout 50 (Dropout) (None, 128) 9 dense 49 (Dense) (None, 180) 23220 dropout 51 (Dropout) (None, 180) 9 dense 50 (Dense) (None, 30) 5430 dense 51 (Dense) (None, 2) 62 Trainable params: 68,144 Non-trainable params: 9",
        "type": "Image"
    },
    {
        "element_id": "ed2f879920202437f4475db53415e4a2",
        "metadata": {
            "coordinates": {
                "layout_height": 1851,
                "layout_width": 1221,
                "points": [
                    [
                        425.9,
                        945.7
                    ],
…
